Seq2Seq/lightning_logs/Nottingham/version_3/checkpoints/epoch=6-step=3499.ckpt (torch, 813770 bytes, 44 tensors)

embeddings.embeddings.min.weight f4 [96, 91]
000000 dd e2 51 be c9 9c 25 3f ad 92 2b 3f 60 a1 f4 3e
       -0.20496698 0.6469236 0.67020684 0.4777937
000010 92 1e 30 3e 24 19 24 3f de 1e a0 3d 72 d3 65 bf
       0.17199162 0.6410086 0.078183874 -0.89775765
000020 af cd 45 be 75 eb 52 bf 87 00 0c 3e 2d 7c 85 3e
       -0.19316743 -0.8239053 0.13672076 0.260713
000030 fe 49 cc 3f 01 7e 1e 3f d1 75 90 bf 7f fa 51 be
       1.5960081 0.61911017 -1.1285955 -0.20505713
000040 04 6b 71 3e df dd 74 bf f7 f6 47 bf 42 37 1c bf
       0.2357598 -0.9565105 -0.78111213 -0.61021817
000050 9e 27 9d bf 4e ba db bf f3 d4 8d bd f2 fb f8 be
       -1.2277715 -1.7166231 -0.069253825 -0.4862972
000060 0c 56 99 3e d1 55 b0 3f c7 94 99 3f a5 66 f1 bd
       0.2994846 1.3776189 1.1998528 -0.11787156
000070 ff bd 58 bf 73 29 18 3f a7 bf e7 be 01 8d ce be
       -0.8466491 0.59438246 -0.45263407 -0.40341952
000080 0d 2a 12 3f 85 c9 af bd 12 f9 f4 3e fb e8 5b 3f
       0.57095414 -0.08583359 0.47846276 0.85902375
000090 1a a5 8f bf c9 5a ef 3f 61 1d a9 3f 75 4b 83 bf
       -1.122226 1.869958 1.3212091 -1.0257403
0000a0 ea 0b dc bd 3d d0 fe bf 73 cb 93 bd 51 49 03 bf
       -0.1074446 -1.9907299 -0.07216539 -0.51283747
0000b0 8a 8a 21 c0 9e 1e dc be 70 97 c9 3e 0c f8 b8 3b
       -2.5240808 -0.4299211 0.3937335 0.005644804
0000c0 2d 9d 90 3f 50 6d 45 bf 72 89 0d bf 9e 53 01 c0
       1.1297966 -0.7711992 -0.5528785 -2.0207286
0000d0 64 97 76 3f c6 d3 f6 3c 56 f7 de bf 10 84 9f 3f
       0.96324754 0.030130278 -1.7419231 1.2462177
0000e0 86 52 28 bd 34 1c c8 ba 01 53 c3 3f f0 33 d1 be
       -0.041094325 -0.0015267194 1.5259706 -0.40859938
0000f0 0e 53 17 c0 e5 2a a2 be 23 68 4c 3e 6d 72 b7 3f
       -2.3644443 -0.3167335 0.199616 1.4331795
000100 37 5d 0d bf 5f 69 84 3f 75 fd 1b bf 9b 30 f8 be
       -0.5522036 1.0344657 -0.6093362 -0.48474583
000110 ca 2b f2 bb 65 e2 b1 bf 2e 42 73 be dc 35 09 3f
       -0.007390474 -1.3897215 -0.23755714 0.5359781
000120 b7 2b 06 40 6d 91 e8 bf 32 22 58 bf cb 1a df be
       2.0964181 -1.816938 -0.8442718 -0.4357513
000130 aa 3d e7 bb 43 9f 6f 3e e1 f9 6a 3f 18 34 4c 3c
       -0.0070569115 0.23400597 0.91787535 0.012463592
000140 d2 3b 06 3f fa ba c8 bf b9 d4 9d bc 96 dd 61 bf
       0.5243503 -1.5682061 -0.019266473 -0.8822874
000150 67 39 25 bf d4 c6 01 3f 58 e9 2b 3f f4 d4 99 3f
       -0.64540714 0.5069401 0.6715293 1.2018113
000160 3f 39 d6 3f d7 d3 cb bf d6 12 3f 3f b1 8b 0e 3f
       1.673622 -1.5924023 0.74638116 0.556819
000170 50 aa 40 bf a7 56 28 3e 01 78 19 c0 51 d2 e7 be
       -0.75259876 0.16439305 -2.3979495 -0.45277646
000180 a7 97 7e 3f 6a 98 07 be a9 66 ed 3d 1f e6 b0 3f
       0.99450153 -0.13241735 0.115918465 1.3820227
000190 91 0b 94 3e a1 a2 ae 3f b1 1b 07 40 f7 29 fa 3e
       0.28915074 1.364338 2.1110651 0.48860142
0001a0 49 3a 03 40 f1 7e 0a be 04 15 a8 be 88 6c dd 3e
       2.0504324 -0.13524987 -0.32828534 0.43246865
0001b0 b9 88 80 bf 25 ed 18 3f 06 49 7e 3f d4 7e 47 3f
       -1.0041724 0.59736854 0.99330175 0.779279
0001c0 11 2a b8 bf dd 97 8a bf 16 7e bb bf 9c 98 d8 3f
       -1.4387838 -1.0827595 -1.4647853 1.6921573
0001d0 44 4e 70 bf 4d 59 61 3f 68 44 55 3f eb 1e 80 be
       -0.93869424 0.8802689 0.83307505 -0.2502359
0001e0 7f 81 22 be f4 7f 21 bf 0e a9 b6 3f 67 f6 7c 3f
       -0.15869711 -0.63085866 1.4270341 0.9881348
0001f0 de c0 15 bf 33 03 c0 bf fb 37 ce bf ea d7 83 be
       -0.58497417 -1.5000976 -1.6110834 -0.25750667
000200 b9 1d 08 bf e0 91 54 bf 08 48 51 bf 68 93 38 3e
       -0.53170353 -0.8303509 -0.81750536 0.18024981
000210 10 1d 04 bf ab 91 7c 3f 48 34 bf be ca 3b 2c bf
       -0.51606846 0.9865977 -0.37344575 -0.6727873
000220 c8 02 a2 bf bc 32 91 bd 6a dd 03 3f f0 bd 09 c0
       -1.2657099 -0.07089755 0.51509726 -2.1522179
000230 39 ae 8f 3b 41 51 94 bf 52 29 0a 3f 0c 29 30 3f
       0.0043847826 -1.1587297 0.539693 0.6881263
000240 c3 5b 2d 3f a9 09 63 3f 2e 74 31 bf 77 a3 8e 3f
       0.6771814 0.88686615 -0.693179 1.1143636
000250 3f c3 54 bf f4 66 42 3f 1c 28 58 bf 42 12 67 3f
       -0.8311042 0.75938344 -0.844362 0.90262234
000260 1d e1 dd be 30 d0 93 3f 98 10 16 bf 00 cd 66 3f
       -0.4333581 1.1547909 -0.5861907 0.90156555
000270 bb db ca 3e 99 29 54 be cb bf ca 3e 73 ef 73 3f
       0.39620766 -0.20718993 0.3959945 0.95287246
000280 3a d1 77 be 14 cd de 3f d8 c2 c9 3f 62 ba f4 be
       -0.24200907 1.7406335 1.5762587 -0.4779845
000290 37 1d 64 3e 9a c2 b0 bf 1b 96 9a 3f 6b 54 8a 3f
       0.2227677 -1.3809388 1.2077059 1.0807012
0002a0 47 4a 07 be c9 15 ac 3f c4 a3 85 3e 23 58 f6 3f
       -0.13211928 1.3444148 0.26101506 1.9245647
0002b0 5e 39 aa 3e 6b f1 31 3f df 99 12 40 c7 66 2c 3f
       0.33246893 0.69509 2.2906415 0.67344326
0002c0 c4 e3 cb 3e 09 c0 f6 bf b5 21 39 3f ee 6b 7d 3f
       0.3982221 -1.9277354 0.7231706 0.9899281
0002d0 d1 33 d4 be ff b0 2f 3f f3 94 af 3f 2e 7b 5a 3f
       -0.41445783 0.6862945 1.3717331 0.8534421
0002e0 b3 31 49 3e 7d f4 6f bf fc 2a f4 be 50 25 aa 3e
       0.19647865 -0.93732435 -0.47689044 0.33231592
0002f0 5a a5 61 3b 20 fe 38 3f a6 cc 48 3e d7 a9 f9 3e
       0.0034430833 0.72262764 0.19609317 0.4876239
000300 2e 72 27 bf 76 d0 e2 bb f9 fc e5 be 63 68 ac 3d
       -0.654086 -0.006921823 -0.44919565 0.08418348
000310 7c 97 5a bf 41 8a 41 bf 11 97 d5 be 16 b9 18 3f
       -0.85387397 -0.75601584 -0.41716817 0.5965742
000320 e1 7a 83 bf 43 67 5d 3e 8c 0b be bf 4e e5 08 be
       -1.0271875 0.21621422 -1.4847274 -0.13368723
000330 8f 10 aa bf e2 e4 39 3f d9 fc 1c 40 da 4b 64 bf
       -1.3286303 0.7261487 2.4529326 -0.8917824
000340 78 ae 4e be cf e8 67 3e 7b b5 05 bf 00 33 b0 3d
       -0.20183742 0.22647403 -0.5223004 0.086034775
000350 b1 9b 48 bd b6 b2 8c 3f 2a 89 d0 3f 50 3c 6c bf
       -0.048976604 1.0992038 1.6291859 -0.9227953
000360 25 f0 9c be d4 22 8e bf 23 6d 58 3f ef 2f ba be
       -0.30651966 -1.1104379 0.8454153 -0.36364695
000370 8c 31 9a bf 02 ca cd 3d 80 21 a9 bf 3d 02 13 40
       -1.204637 0.100482956 -1.3213348 2.2970116
000380 da 8d 0a 3f 5b 65 65 be f8 6a a0 3f ab 62 9e 3f
       0.541227 -0.22401945 1.2532644 1.2373861
000390 31 64 0d 3f 8f 88 47 bf e5 47 95 be a0 a9 d6 be
       0.55231005 -0.77942747 -0.29156414 -0.4192629
0003a0 71 9b 88 3e 4c 67 fe be 1c 30 e9 bf 7b ed 9e be
       0.26681092 -0.49688184 -1.8217807 -0.31040558
0003b0 24 ab 45 be d8 90 c8 bf 70 dc 7d 3f c8 e5 a3 3f
       -0.19303566 -1.5669203 0.99164486 1.2804499
0003c0 0d e9 dd 3e f7 b7 c4 3f 04 37 3a be 48 1a 48 bf
       0.43341866 1.5368642 -0.1818505 -0.781651
0003d0 b8 5f da 3e 95 60 8b 3f a3 cd 1f bf 33 fa 44 bf
       0.42651153 1.088885 -0.6242315 -0.76944274
0003e0 6a a8 12 bf 41 8b a1 3f e7 c3 34 3f 30 0c e7 3f
       -0.5728823 1.2620622 0.70611423 1.8050594
0003f0 bd cd 89 3f 9b f6 3a be a7 06 3a 3f bd 55 9b be
       1.0765911 -0.18258135 0.726664 -0.3033885

embeddings.embeddings.Weekday.weight f4 [7, 20]
000000 ad 41 2d bf de 7a 0a bf a0 ec ee bf 58 76 df bf
       -0.6767834 -0.5409373 -1.8665962 -1.7457991
000010 be 83 17 3f 74 56 65 3f 7d 95 97 bf 32 cd 62 3f
       0.591854 0.8958504 -1.1842495 0.88594353
000020 b7 c8 ac 3d 22 c4 7b bf 76 32 9f 3e 88 f1 b7 3e
       0.08436721 -0.9834615 0.31093186 0.3592646
000030 77 6b 88 bf 9c ff 06 bf f4 04 4c bd 2e e1 e9 3f
       -1.0657796 -0.5273378 -0.04980941 1.8271844
000040 eb 2e 73 3f d8 fc 4d be f9 d5 f5 bf f9 f7 0c be
       0.94993466 -0.20115983 -1.9205924 -0.13766469
000050 22 48 bf be 13 d8 91 be 5f ee 31 bf 09 ae c6 3f
       -0.3735972 -0.28485164 -0.6950435 1.5521861
000060 6a 22 55 3e e8 34 3d 3f 30 b9 32 bf a5 64 3f 3f
       0.20813909 0.73908854 -0.69813824 0.74762946
000070 74 13 58 bf 72 1f 80 3f 24 2f d3 bf ce 26 02 bf
       -0.84404683 1.0009596 -1.6498761 -0.5084046
000080 83 d1 c6 3e d3 7a 20 bf 39 d4 d7 bf 2d 52 a6 bf
       0.3883172 -0.62687415 -1.686164 -1.2993828
000090 8b 9b 37 bf f5 f2 df 3e 5e 3d 90 bd ca 5c fe 3e
       -0.71721715 0.4374005 -0.07042955 0.49680167
0000a0 93 17 04 bf 6e e2 ce 3f 30 99 1a be 6f 92 46 be
       -0.5159847 1.6162851 -0.15097499 -0.19391797
0000b0 1b 6b e1 3d 6d df 3d 3f e7 55 33 bf e8 d6 1a 3f
       0.11006757 0.74169046 -0.7005295 0.6048417
0000c0 fc a1 94 bf bf 04 b9 3e 6a fd b1 bf cc 56 7d 3e
       -1.1611934 0.36136433 -1.3905461 0.24740142
0000d0 8e bd 0c bf 56 cc b9 3d 41 25 06 be de 5c aa bf
       -0.5497674 0.09072177 -0.13100149 -1.3309591
0000e0 a6 67 9b bf 25 b8 81 be 66 1a 3c 3d 6e f1 0f 3f
       -1.2141006 -0.25335804 0.045923613 0.5622777
0000f0 53 0c 85 be b1 37 81 bf 68 19 85 3d 1e ca d3 be
       -0.25985965 -1.0095121 0.064989865 -0.4136514
000100 ef 55 63 3d 48 bc 24 bf 77 3c a8 3f f0 de 76 3e
       0.055501875 -0.64349794 1.3143452 0.24108481
000110 05 26 39 bf d3 b9 8c 3d 97 2f f7 be 56 f6 9f 3d
       -0.7232364 0.06871381 -0.48278496 0.07810657
000120 c1 4c cc 3e 03 f7 9b 3e 90 ad c0 bc 79 7c b7 bf
       0.3990231 0.30461892 -0.023520261 -1.4334861
000130 96 91 d4 bf 7d c8 b5 be 41 11 05 3f 74 e2 c3 3f
       -1.6606929 -0.35504523 0.5197945 1.5303483
000140 73 24 79 be dc ff 8a bf 98 d8 b8 3d 7b 3e 8e 3e
       -0.2433031 -1.0859332 0.09025687 0.27782044
000150 5e ea 7f 3f 91 25 43 bf 59 64 91 3f a9 a0 15 3e
       0.9996699 -0.76229197 1.1358749 0.14612068
000160 4b 4e c4 3e d9 a0 db be c8 da a0 be 62 6f 14 3f
       0.38340983 -0.42896155 -0.31416917 0.57982457
000170 d2 81 a7 be 8a 69 4a bf 5c ef 2b bf ea fd 7c bf
       -0.32716233 -0.7906729 -0.6716211 -0.9882494
000180 ed 3c ab 3e fa 38 2e 3f 02 7e 1c bd 19 33 88 be
       0.3344492 0.6805569 -0.038206108 -0.26601484
000190 af df 9e be ac ca 11 3f bf 87 dc 3e 97 b8 67 bf
       -0.31030032 0.5694988 0.43072316 -0.90516037
0001a0 57 5c c1 3f b8 8e 74 bf ce 15 16 bf c5 73 1f bf
       1.5106305 -0.9553027 -0.5862702 -0.62286025
0001b0 b5 4d 95 3f 68 c7 4b bf b4 8e 0e 3f 15 c0 8f 3e
       1.1664339 -0.79601145 0.556865 0.28076234
0001c0 ae d4 91 3e 3f b6 97 3e 21 f6 f8 be 69 5b 96 bf
       0.28482574 0.2963123 -0.4862528 -1.1746646
0001d0 20 39 95 be 9a 9c 9c bf 78 08 87 3f ca 34 73 be
       -0.29145145 -1.2235291 1.054946 -0.23750606
0001e0 c8 3f 82 bf 30 6f 9a bf f5 8f f2 be db 51 0c 3f
       -1.0175714 -1.2065182 -0.47375455 0.548124
0001f0 8b f0 9c 3e a0 bc 51 3e d9 5f ed bf 00 1f 2c 3f
       0.3065227 0.20482111 -1.8544875 0.672348
000200 a0 ae 10 40 57 d4 63 bf df de 97 3e 8b 9d 81 3e
       2.2606583 -0.8899588 0.29662225 0.25315508
000210 22 89 f8 3d 86 9b 97 bf 97 e1 9a be 81 c4 85 3f
       0.12135531 -1.1844337 -0.30250236 1.0450593
000220 17 82 20 bf af 10 ac 3e ef b6 3e bf 39 24 a0 bf
       -0.626985 0.3360648 -0.74497885 -1.2511054

rnn.weight_ih_l0 f4 [150, 112]
000000 b8 18 0d 3e 64 d7 19 3c 7a 28 e3 3d 6f 86 6e 3d
       0.1377896 0.009389732 0.11091705 0.058233675
000010 68 a4 4c 3c 5d ca 0c 3d 57 1e 17 be 1f 8f 98 bc
       0.012490369 0.034372676 -0.14757667 -0.018622933
000020 6a 03 a3 3c 19 94 a4 bd 26 1c 88 bd 1e b1 86 bd
       0.019899089 -0.0803606 -0.06645994 -0.06576751
000030 d0 e5 26 3c 94 91 1a be 11 fd c2 3d 21 aa cd bd
       0.0101866275 -0.15094596 0.09520925 -0.10042215
000040 0d e5 54 bd 92 c1 36 3d 6d cd 1d 3d 36 af cd 3d
       -0.051976252 0.044618197 0.038525987 0.100431845
000050 de c0 12 be ee f2 cf 3d 74 80 88 bc 9a c1 49 bd
       -0.14331385 0.10153757 -0.016662814 -0.0492569
000060 e8 a4 ae bd b4 8e c2 bd f1 51 0b be 80 65 86 3c
       -0.08527547 -0.09499875 -0.13605477 0.01640582
000070 c1 b6 08 3c df fe d2 3d 9c 69 07 3d 9e f7 fd 3d
       0.008344353 0.10302519 0.0330597 0.12400745
000080 5d 21 2b bd dc 7b cf 3d 84 1a 00 3e 35 91 29 3d
       -0.041779865 0.10131046 0.12510115 0.041398246
000090 35 86 40 bd 3d 3e c5 3c fa 26 a0 bd 5f 78 50 bc
       -0.04700299 0.02407753 -0.07819934 -0.012724011
0000a0 a7 ff 9f 3c ba ae 0d 3d a3 e4 c1 bd 1d 8f ef bd
       0.019531084 0.03459046 -0.09467437 -0.116972186
0000b0 39 21 ff bd 1f f9 b8 bd 6e 9b 2f bd 77 a2 16 3e
       -0.124575086 -0.09031891 -0.04287284 0.14710413
0000c0 d3 87 21 be 7b 77 64 bd 07 d5 1a 3d e7 3c f5 bc
       -0.15774469 -0.055778008 0.037800815 -0.029936267
0000d0 11 e7 1d 3d 06 bb bd 3d 71 79 05 3e 20 af 17 3d
       0.03855044 0.092641875 0.13034607 0.037032247
0000e0 82 cd 0c 3e 5e 45 ff bc e0 16 d5 bd ef b1 63 3d
       0.1375027 -0.031161007 -0.10404754 0.055589613
0000f0 a1 2b 39 bd f0 0d e2 3d f0 54 d1 3d 1f b9 0a 3e
       -0.045207623 0.110378146 0.10221279 0.1354718
000100 db 52 bb bb 63 0f fc bc d6 6d 84 bd 79 92 e1 3c
       -0.0057166643 -0.030769056 -0.06466262 0.027535664
000110 f6 ff ab bd df 78 0b bd 55 57 10 3d eb 67 1a bd
       -0.0839843 -0.03405082 0.035239536 -0.03769676
000120 5d bb 05 be 7e 6b 1e be 8d 06 0f bd 97 a6 f5 3d
       -0.13059755 -0.15470693 -0.034918357 0.11994665
000130 a3 64 8a 3b 31 e8 b9 bc 78 03 cc 3d 9e d9 db 3d
       0.0042234226 -0.022693725 0.09961599 0.107348666
000140 21 3e c9 bc 4b 82 01 be 51 fb 8e bd c7 b6 2a 3d
       -0.024565758 -0.12647359 -0.069815286 0.041678216
000150 95 18 33 3c 84 dc 0f bd 9f 3b 82 bd fc b3 42 bd
       0.010931154 -0.03512241 -0.06359028 -0.047534928
000160 74 cf f7 3d ca 63 08 3e 1b c1 e4 bd 21 82 61 3d
       0.121001154 0.13319317 -0.111696444 0.05505574
000170 8d f3 dd bc 42 31 f0 bb 74 8f 46 3d d9 75 94 bd
       -0.027093673 -0.0073300907 0.04847665 -0.0724904
000180 12 0c b0 3c 8c 81 21 bd b1 b0 24 3d f5 52 95 bc
       0.02149013 -0.039430186 0.04020757 -0.018228034
000190 a7 6c f1 bd c5 9b e0 bd a5 c6 13 be f7 4d c0 3d
       -0.11788302 -0.10967211 -0.14431246 0.093898706
0001a0 a8 90 d3 bd c7 37 81 bd 9d 3b 22 3c 08 7a 48 3c
       -0.10330325 -0.06309467 0.009901908 0.012236126
0001b0 a0 aa 82 bd 25 a7 ea 3b 74 05 d0 bd 81 e3 fe 3d
       -0.063802004 0.0071610385 -0.1015729 0.12445737
0001c0 5f 90 ea bd 22 c4 b5 3d 45 b7 bf 3b 50 ea 19 3e
       -0.11453318 0.088753 0.005850705 0.1503079
0001d0 0e 95 23 3e f1 52 44 bc 12 36 0f 3e 04 44 11 bd
       0.15974829 -0.011982665 0.1398547 -0.035465255
0001e0 74 9f da bd c5 5b e7 bc e2 89 cc bc d1 d1 bc 3d
       -0.106749445 -0.028242001 -0.024968091 0.09219707
0001f0 be ef e8 bd bc a9 f2 bc 87 ba 56 bd 26 4f 23 3c
       -0.11373852 -0.029621951 -0.05242398 0.009967601
000200 0e c5 b8 bd 51 f2 09 3d ba a3 38 3d b4 41 30 3d
       -0.0902196 0.033678357 0.045078017 0.04303141
000210 68 cc 47 bc 17 bc c7 bd dd 58 0d 3d 95 4c 93 bd
       -0.01219473 -0.09752672 0.034508575 -0.07192341
000220 f4 16 56 3d 08 9d 4e 3e 0f 03 9e 3d 1b d7 06 bd
       0.052267984 0.2017709 0.07715427 -0.032919984
000230 69 09 8c 3d fb e9 1d 3e a3 96 ab bc be 40 58 3d
       0.06837732 0.15421288 -0.020945853 0.052796118
000240 db ad 31 3e c1 e1 5d 3d 68 ec 9a 3c 9f de 4a bc
       0.17351477 0.054170374 0.018911555 -0.012382179
000250 6a e5 5e 3d b3 b6 ff bd 0a 20 3a bd a7 e0 81 3d
       0.054418005 -0.12486019 -0.04544071 0.06341677
000260 2b 03 b1 3c f3 ba b0 3d b8 70 91 bd 65 61 b0 bd
       0.021607956 0.08629408 -0.071015775 -0.086123265
000270 13 75 9d bd ea 22 34 3d 3d d7 c6 3d 06 cd d4 3a
       -0.07688346 0.04397861 0.09709022 0.0016235418
000280 2d 6c de 3d 40 2a 03 bd 8f 94 21 bd 65 0c f5 3d
       0.10860477 -0.032022715 -0.039448317 0.11965255
000290 aa 91 ae 3d 5c 7d 1d be eb 91 82 3d 85 cb be bd
       0.08523877 -0.15379852 0.06375488 -0.09316162
0002a0 6e 8f a2 bb 32 18 1d be bc c5 ef bd b5 e9 92 bd
       -0.004960946 -0.15341261 -0.11707637 -0.07173482
0002b0 f1 5f e4 bc 84 48 06 3e 94 7b 65 bd b3 07 0b bc
       -0.02787778 0.131136 -0.056026056 -0.008485722
0002c0 5c be c9 3d 41 79 00 3d f5 21 8e 3d 8d 70 e7 3d
       0.09850761 0.031365637 0.069400705 0.11300764
0002d0 a7 fb 0a 3e de c8 43 bd a0 b4 1c bc 69 48 1c bd
       0.1357256 -0.047798984 -0.009564549 -0.038154993
0002e0 3e 26 91 3d 32 c6 28 3e 03 f3 a1 3d 8f 13 f4 3a
       0.07087372 0.16481856 0.07907679 0.0018621552
0002f0 54 c5 e9 bc 92 14 12 3d 06 06 19 3e 95 7d ce 3d
       -0.028536476 0.03566415 0.14943704 0.100825466
000300 1e c2 52 bb 6c 72 f9 bc fb 7b 28 3d f7 d9 13 be
       -0.003215916 -0.030450068 0.041133862 -0.14438616
000310 8d 27 5e 3d 4e 22 03 be 11 d7 d0 3d 7d e6 a5 3d
       0.054236937 -0.12806055 0.10197271 0.08100603
000320 f8 9e 59 bd 46 48 5c bd e8 d2 c2 bd c2 10 14 3e
       -0.05313012 -0.053779863 -0.095128834 0.14459518
000330 47 0a 98 3c 81 b5 9d bd 9f d8 07 3c 90 e1 5b 3d
       0.018559588 -0.07700635 0.008291393 0.05368191
000340 b8 d3 df 3d cb 48 f9 3d 7f 4f b7 bd 0d 69 d7 3d
       0.10929054 0.12172087 -0.089507096 0.10518084
000350 6b fc d0 3d 74 26 43 bd b2 64 cf bd 6a 37 ce 3d
       0.10204395 -0.047644094 -0.10126628 0.10069163
000360 a4 ee ee bc 84 04 4d 3d 9b 49 43 bc da f0 c1 bd
       -0.029166527 0.050053135 -0.011919404 -0.09469767
000370 15 60 81 bc 10 6c 6b 3d 61 5d 16 bd c2 5f 80 3d
       -0.015792886 0.057476103 -0.036710147 0.06268264
000380 58 a5 8e bd 75 0a ef 3d 5b e9 31 3d f5 71 d3 bd
       -0.069651306 0.116719164 0.043435436 -0.1032447
000390 ca 86 65 bc c6 29 60 3d ac c0 db bd ca a8 e6 3d
       -0.014009187 0.05472734 -0.107301086 0.11262663
0003a0 ed a2 5f 3d e4 e2 1e bd ca d6 e2 bc 5e c0 d1 3c
       0.054598738 -0.0387906 -0.02769031 0.025604423
0003b0 64 dd 02 3d b1 4b 2c bd 88 11 f3 3a ac e7 0a 3e
       0.031949416 -0.042064372 0.0018544653 0.13564938
0003c0 7b 62 0d be 1d d3 d2 bb 40 01 02 3d 90 f0 21 3c
       -0.13807099 -0.006433858 0.031739473 0.009884015
0003d0 4e dc 85 3d 87 9c b4 3d 7f 40 b0 3c 47 68 db bd
       0.065361604 0.08818918 0.02151513 -0.10713249
0003e0 ed cc 85 bb 85 fc 1f 3d d3 f0 59 3d 37 37 a1 bd
       -0.004083267 0.03905918 0.053208183 -0.078718595
0003f0 dd c5 fa 3b cf 40 e4 bd 59 f1 32 3e 8a 58 94 bd
       0.0076529817 -0.11145174 0.1747488 -0.0724345

rnn.weight_hh_l0 f4 [150, 50]
000000 26 73 99 3b 46 5e 13 3e 9d 2b fc bd 9e 96 6c 3d
       0.004682916 0.14391431 -0.12313006 0.057760827
000010 c1 31 49 be f5 dd b5 bd fc fc 0e 3d f1 13 5d 3d
       -0.19647886 -0.088802256 0.034909233 0.053974096
000020 53 34 39 be 37 0d 5b 3d 04 5a ca bd 83 f8 64 3e
       -0.18086366 0.0534794 -0.0988045 0.22360425
000030 06 9c 2f be c9 1f 3d 3c ba ec 84 bd 7e b7 29 bb
       -0.17149362 0.011543223 -0.064904645 -0.0025896723
000040 b9 7f 13 be cb 46 14 3e 86 d4 88 3c 80 26 bd 3d
       -0.14404191 0.1448013 0.016702902 0.09235859
000050 c5 0e 5a bd 97 72 aa 3d 60 ec 73 bd cb cd 3c 3d
       -0.05323674 0.083226375 -0.059551597 0.046094697
000060 5c de 88 bd 37 30 86 bd 89 88 37 be b1 9d c8 bc
       -0.06683037 -0.06552165 -0.17923178 -0.024489256
000070 90 76 69 bc d0 68 e9 3d 4a 62 f3 bd b7 c6 81 3d
       -0.014249459 0.113969445 -0.118839815 0.0633673
000080 1b 0a 8f 3d fe 8c df 3d 73 f9 c2 3d 3d 52 81 bd
       0.06984349 0.10915564 0.09520235 -0.06314514
000090 77 8a 0a 3e 1f 20 25 3e 8c f6 b4 3c cc d5 25 3d
       0.13529383 0.16125534 0.022090219 0.040487096
0000a0 25 fd d9 bd 11 b3 1a be 44 f2 0a 3e d4 f9 b8 bd
       -0.106439866 -0.15107371 0.1356898 -0.09032026
0000b0 48 3b 84 3d 0f 92 e8 3d 7e 6a f4 bc 27 ce 19 be
       0.064566195 0.113559835 -0.029835936 -0.15020047
0000c0 91 27 d2 3d bb 2b 22 3e 4f 76 a5 bd d7 c7 ab bd
       0.10261453 0.15836994 -0.08079206 -0.08387726
0000d0 d9 63 fb 3d 83 2c 85 3d b3 97 19 3e f2 1a 4d 3a
       0.12274904 0.065026306 0.14999275 0.00078241446
0000e0 0f d8 1e bd 1b 46 a4 3c 7d 90 9a 3d 30 82 e0 3d
       -0.03878027 0.02005296 0.0754709 0.10962331
0000f0 f9 63 b1 bd 72 2f ac 3d d4 f7 82 3d 49 c0 16 3d
       -0.086616464 0.08407487 0.06394926 0.03680447
000100 0d 87 f7 bd 59 e2 b3 3d 01 c1 02 be b3 7d 61 bd
       -0.12086306 0.08783407 -0.12768938 -0.055051517
000110 6d ad ea bd 2d 06 c8 bd e9 4c 85 bd 96 e6 22 be
       -0.114588596 -0.09766803 -0.0650881 -0.15908274
000120 25 6a 18 3e a9 27 33 3c 39 75 03 3d d9 46 a9 3d
       0.14884241 0.010934749 0.032094214 0.08265466
000130 a2 2b fa 3d 98 de 95 bc 20 48 a8 bc f2 b4 f6 bd
       0.122153535 -0.018294618 -0.020542204 -0.12046231
000140 64 a8 18 3d a5 04 94 3d ba cb d2 bc 60 f7 b3 3d
       0.037269965 0.072274484 -0.02573191 0.087874174
000150 b8 06 b4 bd f0 93 d7 bc 23 5a 87 bd f6 da 9c 3d
       -0.08790344 -0.02631566 -0.06608989 0.07658951
000160 84 17 69 3c d3 8a 76 3d 6e 0e e3 3d 18 5c 78 3b
       0.014226798 0.060190987 0.110867366 0.003789669
000170 44 e0 d3 3d 26 e8 e7 bd 58 34 3b bd 38 aa 8a 3d
       0.1034551 -0.11323576 -0.045704216 0.06770748
000180 35 0c dd 3d 12 d8 c0 3d 2b 12 9a bd 28 46 07 be
       0.10793344 0.09416212 -0.075229965 -0.13210356
000190 3b 69 04 3e f1 53 6d 3c 67 29 c7 3d 69 54 99 bd
       0.12930767 0.014485345 0.09724694 -0.07486803
0001a0 e7 88 0b 3b ee c7 07 3e 23 6b b6 3b 5c 9c eb bd
       0.0021291317 0.13259861 0.005566971 -0.115044326
0001b0 5e d7 e2 3d e4 51 bb bd 13 bc 88 3d 41 bd ce bd
       0.11076234 -0.09146479 0.06676497 -0.10094691
0001c0 f6 e2 93 bd f3 c4 9a bb 7a 3f 9d 3d 55 ce ab 3d
       -0.07221024 -0.004723185 0.07678123 0.08388964
0001d0 c3 ab 4e 3b 7f 48 06 3c 80 37 f5 bd 84 2d 67 3d
       0.0031535483 0.008195995 -0.119734764 0.05643989
0001e0 00 f5 90 bd 6b ce b5 bd cd 4c 8f 3d e9 6c bb bd
       -0.0707798 -0.08877262 0.069970705 -0.09151632
0001f0 61 82 bd bd bd fd f5 bd f3 78 7e 3c 2d fa 4f 3d
       -0.092533834 -0.12011287 0.015531766 0.050775696
000200 dd 85 17 bc f0 0d 9e bd 66 f1 04 be 74 0c 4a 3c
       -0.009248224 -0.07717502 -0.12982711 0.012332071
000210 ba 81 be bd 70 da f6 bc 45 7c 65 bd 45 a8 57 bc
       -0.09302087 -0.030133456 -0.056026716 -0.013162677
000220 14 4e a1 bd 53 c4 73 3d 0d 43 b7 bc 9b 10 42 bc
       -0.0787622 0.0595134 -0.02237084 -0.011844779
000230 67 2b 0d 3e 9d 68 cc 3d 85 a8 a8 bd 97 44 b0 bd
       0.13786088 0.09980891 -0.082352675 -0.086068325
000240 30 22 7a 3d 33 61 0f be ef 1c bf bc 17 a2 63 3d
       0.06106776 -0.14001922 -0.023329226 0.055574503
000250 17 aa bd 3d 78 6f c2 bd e6 62 33 bd ff 4b ae 3d
       0.09260958 -0.09493917 -0.04379549 0.08510589
000260 0b e5 d3 3c cb fc c8 3d e8 90 a7 bd 0e 69 53 bd
       0.025866052 0.098138414 -0.081819355 -0.05161386
000270 9c 70 12 3e ad 77 b6 bd 33 bc 41 3d 18 80 f7 bc
       0.1430077 -0.08909545 0.04729862 -0.030212447
000280 5d 60 c2 bd 6d 65 a4 3d 6e c7 cc bc b4 8b 88 3d
       -0.09491036 0.08027158 -0.02499744 0.06667271
000290 64 b5 55 3c 3f 4d 1e be 4f e0 56 bd 21 87 84 bd
       0.013043735 -0.15459155 -0.05246001 -0.06471086
0002a0 6e 88 02 3e d4 28 67 bc 13 c2 3d 3e 53 1a 48 bc
       0.12747356 -0.014108855 0.18531065 -0.012213307
0002b0 4b 10 d6 3d 7f 7e 26 3d 3c ed 3c 3e 38 5f 2e 3e
       0.104523264 0.04064798 0.18449873 0.1702851
0002c0 67 9f 12 3e e6 b8 72 bd 64 1d 65 3b c4 0c 1b be
       0.1431862 -0.059258364 0.0034960145 -0.15141588
0002d0 96 4e 38 3d 4c 79 f1 3d b3 ce 97 bd dc c3 25 bd
       0.04499682 0.11790714 -0.074124716 -0.04046999
0002e0 54 51 44 bd fe b4 ff bd bd 55 e8 3d 01 26 50 3d
       -0.047929123 -0.124856934 0.11344478 0.050817493
0002f0 db 7d 5c bd cb fa 7d 3c 0f 00 be bc ea a9 b2 bd
       -0.053830963 0.015501688 -0.023193387 -0.08723815
000300 f1 ef e7 bd 79 d6 77 3d 10 ca 27 be 69 92 e7 bd
       -0.11325062 0.06050727 -0.16385674 -0.113072224
000310 b5 b5 af bd f5 68 47 3e e1 11 52 bd 7e 03 4a bd
       -0.0857958 0.19473632 -0.051286582 -0.049319737
000320 56 61 47 be 41 d8 44 bd de e8 28 bc 8e af 0d 3b
       -0.19470724 -0.0480578 -0.010309426 0.0021619531
000330 ad e2 2f 3d 67 46 9b bc 6a f5 c2 3d 8d b3 8f bd
       0.042940784 -0.018954469 0.09519465 -0.070166685
000340 31 43 56 3e aa 98 cd bd 5d 4b 69 3c c0 e8 a4 bd
       0.20924069 -0.10038884 0.014239159 -0.08052206
000350 a9 1e f1 3d 04 5f 0a be 9c 8a c6 bc ba 08 ea bd
       0.11773426 -0.13512808 -0.024236016 -0.11427446
000360 af 09 4b 3e d3 4d c6 bd 95 84 22 be d6 75 32 be
       0.19827913 -0.096828125 -0.15870889 -0.17427763
000370 88 24 c8 3c 99 8f 32 be 17 cb f6 3d 36 4d 13 3e
       0.024431482 -0.1743759 0.12050455 0.14384922
000380 e6 05 0d 3e 71 b4 64 3e 67 a4 e5 3d dd a2 89 3d
       0.13771781 0.22334458 0.11212998 0.06720517
000390 96 63 1f 3d 63 b6 c3 bd 96 9a cf 3b 7d a0 25 be
       0.038913332 -0.09556272 0.0063355668 -0.16174503
0003a0 98 e5 6a be 72 80 0a 3d 36 b3 78 3d 5c 00 3d be
       -0.22939146 0.0338139 0.060717784 -0.18457168
0003b0 6a f3 aa bd f1 fa d6 3c f8 7c a9 bb e4 1b 7b be
       -0.08347209 0.026242705 -0.005172368 -0.24522358
0003c0 8a 6c 2b bd 3c b8 a9 bd 68 ce 3c be 09 7a 43 3d
       -0.041851558 -0.08287093 -0.18438113 0.047723804
0003d0 78 9b 82 bd 32 45 39 3e a1 03 e5 3d 1c 56 69 3e
       -0.063773096 0.18092802 0.11182333 0.22786754
0003e0 53 5d c6 3d 27 29 2b be c4 ed 72 3d 68 0b 08 be
       0.09685769 -0.16714917 0.059308782 -0.13285601
0003f0 01 48 f1 3d 51 ca 84 bd 90 3b 71 bc 49 c1 c9 bd
       0.11781312 -0.06483901 -0.014723673 -0.09851319

rnn.bias_ih_l0 f4 [150]
000000 b3 8d c5 bd 2b d8 08 bd bd 03 81 3c ca cc 1c 3e
       -0.096461676 -0.03340928 0.015748853 0.15312496
000010 43 84 ee bd d5 72 99 3d 33 02 a0 3d 84 68 a2 3c
       -0.11646321 0.074926056 0.078129195 0.019825228
000020 72 bf 0d 3d 13 e0 77 bc 74 76 33 3e 0a e6 19 bd
       0.034606405 -0.015129107 0.17525655 -0.037572898
000030 cc aa 18 3e 5a bf 56 bd de 2e c7 3b 10 b6 05 3d
       0.14908904 -0.05242858 0.006078585 0.03264433
000040 b3 00 a2 3d 1d 72 b4 bb 1b 31 dc bc da 45 55 3e
       0.079102896 -0.0055067674 -0.026878884 0.20827428
000050 98 91 9c bd 1f f6 02 bd 1e 40 ad bd af b8 36 3e
       -0.07644957 -0.031973 -0.08459495 0.17843889
000060 fc 52 97 bd f7 dc 98 bd 29 d5 e0 3d 01 82 cb 3b
       -0.07388875 -0.07464021 0.10978157 0.006210566
000070 3c 04 e9 3d ff 2b b7 bd 9a ba 3c 3e 76 df d1 3d
       0.11377761 -0.089439385 0.18430558 0.102477
000080 0c ee 02 3d 36 9c b4 3d 2a ab ba bc 06 8e 0b 3e
       0.0319653 0.08818857 -0.022786696 0.13628396
000090 7c ec 60 3d a6 57 03 bd 8d f2 f6 bd 58 ed d5 3d
       0.05491303 -0.03206601 -0.12057982 0.1044566
0000a0 5c 80 73 bd 42 60 bc bc 06 79 06 3e 8a e8 d7 3a
       -0.059448585 -0.022995118 0.13132104 0.00164725
0000b0 e7 9b 13 3e 1a 11 7d 3d 27 79 e7 3c 59 2b 02 be
       0.14414941 0.061783887 0.028256012 -0.12711848
0000c0 fd 65 63 3d 55 d3 e6 3d 9c de 85 bd 62 47 ef bd
       0.055517185 0.11270777 -0.065366 -0.11683537
0000d0 bf 75 00 bc 19 f2 b7 3d 7f c1 d0 bd d6 26 15 be
       -0.007840573 0.08981723 -0.101931565 -0.14565596
0000e0 59 c6 fe 3d fe 03 ab 3d 7a 9f cb bd b3 9a 2d be
       0.124401756 0.08350371 -0.09942527 -0.16953544
0000f0 a6 a8 05 3d b0 44 20 3d d9 6f c8 bd b9 e4 ad bc
       0.03263154 0.039128006 -0.09786958 -0.021227228
000100 98 27 37 bd cc 17 49 3e d3 c1 07 bd 0e 5a b3 3d
       -0.044715494 0.19637984 -0.03314383 0.08757411
000110 e6 93 09 3d e6 23 51 bd b0 02 6d bd 89 c7 2c be
       0.033588313 -0.051059626 -0.05786389 -0.16872992
000120 39 c2 8f bc 43 07 d6 bd 00 c2 d9 3b 10 bb 3c 3e
       -0.017548667 -0.10450604 0.006645441 0.18430734
000130 9b 17 9b bd 9f 57 15 be 96 8c 32 be 5b dd ba bd
       -0.07572862 -0.14584206 -0.17436442 -0.091242515
000140 a6 c4 db 3d f1 55 e4 3d 5b 8b 0f be 87 ab 43 3c
       0.10730867 0.111492045 -0.14018004 0.011942751
000150 84 c1 a8 bc ca 40 88 3d a4 bc 06 3e b2 f8 da ba
       -0.020600088 0.066529825 0.13157898 -0.0016706197
000160 bc ea 5f bd 6c 7f 32 3c da 06 c0 39 cd 2b c0 bd
       -0.05466722 0.010894638 0.000366262 -0.09383354
000170 89 33 54 3d 12 7f 60 bc 77 95 c2 bd 1c da e2 bc
       0.05180696 -0.013702171 -0.095011644 -0.027691893
000180 47 33 91 3c 4c c8 b8 bd 11 1e e6 3d 9c 8d e0 bd
       0.017724646 -0.090225786 0.112362035 -0.1096451
000190 75 95 ff 39 dd 5e 76 bd 3e 1d a1 3d f9 58 3b 3d
       0.00048748744 -0.060149062 0.07866906 0.045739148
0001a0 b9 44 a5 3d e3 c6 97 3d 81 59 d8 bd ea 72 89 3d
       0.080697484 0.074109815 -0.105639465 0.06711371
0001b0 e7 36 b8 3d e3 a9 c3 3d 0f 8b 8f bd 3b f9 93 bd
       0.08994847 0.09553888 -0.07008945 -0.07225271
0001c0 33 c5 84 ba c4 17 72 bd b4 41 fe bd cb 3d ea 3c
       -0.0010129571 -0.059104696 -0.124148756 0.028593918
0001d0 e6 fc 4b bd ec 24 f1 bd f0 93 da bd a0 e2 0f bc
       -0.04980173 -0.117746204 -0.10672748 -0.008782059
0001e0 bc cc 4f 3c 51 5e e1 bc d8 06 5f 3d 0f fe 64 3d
       0.01268309 -0.027510794 0.054449886 0.05590635
0001f0 13 4f 1c 3d f5 1b 70 3d 30 4f 88 bd 0b ec ec bd
       0.03816135 0.058620412 -0.06655729 -0.11568459
000200 a8 a6 f3 bc 6f b0 ff bc 19 99 39 bd 87 1f 89 bc
       -0.029742554 -0.03121206 -0.04531202 -0.016738666
000210 93 ae eb 3b 98 30 ab 3d 27 f6 c3 bc 63 b0 fa 3d
       0.0071924417 0.08358878 -0.023921086 0.12240674
000220 bc 18 f0 3d 5f fb d4 bd dc 89 0c 3e b5 d9 d6 3d
       0.11723468 -0.10399508 0.13724464 0.10490743
000230 83 25 f2 ba 5b 9b 87 bd ad 0f 79 bb 34 7b 37 bd
       -0.0018474314 -0.066214286 -0.0038003728 -0.04479523
000240 9d e7 91 3d 86 ee f4 3d 34 ca da bc 38 cc 63 bc
       0.07124255 0.11959557 -0.026707746 -0.01390367
000250 6e d7 70 bd 91 19 87 3c
       -0.0587992 0.016491683

rnn.bias_hh_l0 f4 [150]
000000 64 a7 94 bd 05 1e f0 3c 94 7e a5 3d 9a b2 31 3e
       -0.0725849 0.02931119 0.080807835 0.17353287
000010 85 7c 08 be fd 4c 35 bd 19 70 75 3c 0e d1 04 bd
       -0.1332875 -0.044262875 0.014980339 -0.032425933
000020 b6 5b 1d bd 27 a6 ba bd 1c 01 6a 3d d6 bd 96 bd
       -0.03841754 -0.09113722 0.057129964 -0.07360427
000030 af d6 8c 3d 22 2c cd bd eb e9 01 3d c1 9c af 3c
       0.06876885 -0.10018183 0.031717222 0.02143705
000040 d6 27 fa 3d 15 6c b1 3c d9 17 dd bc 30 9c 11 3e
       0.12214629 0.021657983 -0.02698891 0.14219737
000050 bb 86 e3 3d 8e 56 ce bc 34 4a f1 bc 8f 61 e1 bb
       0.11109682 -0.025187757 -0.029454328 -0.006878085
000060 e5 37 30 3e 07 2e 43 3d 9e 44 20 bd 93 a9 28 bc
       0.17208822 0.047651317 -0.03912794 -0.010294336
000070 fa 5f a4 bc 8f 0f 08 bd 63 9a ed bb 7a 28 bf bd
       -0.020065296 -0.033217963 -0.0072510703 -0.09333892
000080 bb 9a 09 be 82 59 67 3e d7 fb c9 3d f7 f7 3f 3d
       -0.13437931 0.22592738 0.09862488 0.046867337
000090 24 9a 43 bd 08 d6 38 3e 63 86 e2 bd 97 59 07 bd
       -0.04775442 0.18050396 -0.110607885 -0.033044424
0000a0 41 bc 24 3c e6 99 4a 3e a1 5d c9 bd 57 eb 4d 3e
       0.010054649 0.1978527 -0.098323114 0.20109306
0000b0 5b 9b c3 3d 58 9b 89 bd 04 b7 d9 3b c5 cb dd bd
       0.09551116 -0.067190826 0.0066441316 -0.108298816
0000c0 28 e2 02 3d ab a9 c1 3d d4 89 37 be ff 21 38 be
       0.03195396 0.0945619 -0.17923671 -0.17981718
0000d0 b5 9a c0 3c 1b 98 dd 3d 7e bd 8d bd fe 6c 98 3d
       0.02351127 0.108200274 -0.069209084 0.074426636
0000e0 b3 74 d2 bd 7a 7c f3 bd 14 00 06 3d cd c4 0b bc
       -0.10276165 -0.118889764 0.03271492 -0.008530808
0000f0 e7 e1 9f 3d 0c d6 0e be e2 f7 67 3d 9e 44 04 3c
       0.07806759 -0.1394884 0.056632884 0.008073
000100 ab 85 b2 b8 e0 6e 03 bd 1f 6f df bc 8f 02 a4 bd
       -8.512599e-05 -0.03208816 -0.027274666 -0.080083005
000110 f5 9e d8 3c b8 5f 70 3d 53 48 b9 bd ed c4 ef bb
       0.026442984 0.058685035 -0.09046998 -0.0073171766
000120 f0 86 41 bc f8 c8 2e 3e 28 be 2d 3c 98 7e c6 3d
       -0.011811957 0.17068851 0.010604419 0.096921146
000130 0c 79 2a bd 33 f8 81 be ba 25 99 bd c9 42 9f bd
       -0.041619346 -0.25384673 -0.07477899 -0.0777641
000140 53 54 e0 bd cc 9c e3 3c 88 3b fa bd ae 86 13 3e
       -0.109535836 0.027784728 -0.12218386 0.14406845
000150 da 1c b4 bc ed 00 01 be b0 16 96 bd d4 69 f2 bd
       -0.021986414 -0.1259801 -0.07328546 -0.11836591
000160 0a 5e 0d bd 6d 5a 03 be dc 7b 33 3d 0e c4 fa bd
       -0.03451351 -0.12827463 0.043819293 -0.12244426
000170 67 9a 25 3d 35 bb 81 bd aa 0b 26 3d c1 80 0a be
       0.040430453 -0.06334535 0.040538467 -0.13525678
000180 aa 8b 90 3d 87 65 25 bb 95 dd 1e 3e 0b 88 35 be
       0.07057889 -0.0025237517 0.15514214 -0.17727678
000190 cb d7 df bd b2 0a 25 3e 7a c9 22 be 80 11 1d 3c
       -0.10929831 0.16117361 -0.1589717 0.009586692
0001a0 ea 20 df bd 99 48 ab 3d b0 20 e6 3d 41 de 51 3c
       -0.1089495 0.08363456 0.112367034 0.012809337
0001b0 d5 75 f4 bd 8f 58 c5 3d 77 8f cc bc 5d 9f 9f bd
       -0.11936537 0.09636032 -0.024970753 -0.07794068
0001c0 f3 fc 68 bd e1 44 27 3e f0 0b 0e 3e a8 f4 be bc
       -0.056881856 0.16334869 0.13871741 -0.02331002
0001d0 db 74 df 3d a1 38 19 3e 29 c2 20 3b d7 18 0c be
       0.1091096 0.14963008 0.002452979 -0.1368135
0001e0 e4 eb 11 be de ce e8 3c 3e d8 f4 bd 75 8f 9f 3c
       -0.14250141 0.028418954 -0.119553074 0.019477585
0001f0 76 28 97 ba 5d 1c 2d bd 87 2a 05 3e 82 0d 19 3e
       -0.0011532444 -0.042263377 0.13004504 0.14946559
000200 4a 9d 58 3d 6a 55 95 3d 88 12 8a bd 9a 94 91 bd
       0.052884378 0.07291682 -0.06741816 -0.071084216
000210 16 a5 45 3c 1f 6b c0 3c a8 3d ff 3d 03 a5 10 3e
       0.012063285 0.02348858 0.12462932 0.14125447
000220 0b 58 a8 bd d9 ca e6 bd a3 18 fe bc 22 70 2a bd
       -0.08219918 -0.11269159 -0.031017607 -0.041610844
000230 85 48 ab 3c 7c cf 11 3e f6 7c 0f be ef c7 89 bb
       0.020908603 0.14239305 -0.14012513 -0.004204742
000240 36 d2 26 be 2e f9 5b bd 17 b8 05 be 24 ba 84 3c
       -0.16291127 -0.053704433 -0.13058506 0.01620204
000250 64 18 fa bd 85 9f 93 3c
       -0.122116834 0.0180204

rnn.weight_ih_l1 f4 [150, 50]
000000 1c 4f 19 3e 39 ce cd bd 16 0e e5 bd 84 3b c1 3c
       0.14971584 -0.100490995 -0.11184327 0.02358795
000010 49 71 85 bb 60 0f 28 3d fc 4d 68 bd a8 e0 ab 3c
       -0.0040723425 0.041030288 -0.056714997 0.020981148
000020 e2 8f 04 be 50 a0 03 be 02 5a 0d 3e 5d 65 cb bd
       -0.12945512 -0.12854123 0.13803867 -0.09931443
000030 ce dc 02 be 70 68 62 bc f0 1e 0e 3d 1a 9c 92 3c
       -0.12779543 -0.013818845 0.034697473 0.0178967
000040 d0 47 08 3c d6 aa 9b bc 89 d8 53 bc 78 09 da 3d
       0.008317903 -0.01900236 -0.012930044 0.10646337
000050 dc e5 6f b9 ef 1a 5d 3d 76 85 c9 bd 90 0f 98 bd
       -0.00022878445 0.053980764 -0.09839909 -0.07424843
000060 b2 53 d2 bd 4d 6e ab bc 01 59 ea bd 25 d1 6d bd
       -0.1026987 -0.020926619 -0.114427574 -0.058060784
000070 eb ce ee bb a6 c1 fa 3c 7f 54 d6 bd a5 4e 2a 3e
       -0.00728785 0.030609917 -0.10465335 0.16631563
000080 80 92 93 bd e5 ce b3 3d 0f 8d 20 bd e4 40 08 3e
       -0.07205677 0.087796964 -0.039197024 0.13306004
000090 f0 83 e1 ba 9c c2 9a bd 4a 21 5a bd d8 2f 67 3d
       -0.0017205458 -0.0755665 -0.053254403 0.05644211
0000a0 3a 49 e6 3d 5f 4d 0a bc 3a dc 28 bc 89 a8 c7 3d
       0.112444356 -0.008441298 -0.010306412 0.097489424
0000b0 f5 3e e7 bd a3 e3 ad bd f7 18 24 be 37 03 29 bd
       -0.11291305 -0.08490684 -0.16025148 -0.04126283
0000c0 70 d9 a8 3d 46 7b ef 3d bc 72 22 3d 42 ff d1 3d
       0.08244598 0.116934344 0.0396602 0.10253765
0000d0 81 ad f0 3d c3 6f cf bc 50 8a 8d 3d c9 db 2b be
       0.11751843 -0.025321847 0.06911147 -0.1678306
0000e0 25 53 66 bd 5e 39 d3 bd 83 20 70 bd 6d 04 a3 bd
       -0.056231637 -0.10313676 -0.058624756 -0.079598285
0000f0 99 b0 0e 3e 71 93 43 3d af e9 ea 3d 48 1d 1f 3d
       0.13934554 0.047748033 0.11470353 0.038846284
000100 3e 2e b6 3b e9 f0 01 be 69 e0 c3 bb 6d 67 71 3d
       0.0055597117 -0.12689556 -0.0059776795 0.058936525
000110 70 c1 28 be 11 b1 f2 bd a3 6d 31 bc 8f 1d 98 3d
       -0.1648004 -0.11850179 -0.010829362 0.07427513
000120 fa 4f 84 3d ce 73 64 3c f3 2e b4 3d f5 89 69 3d
       0.06460567 0.013943626 0.08798017 0.05701633
000130 d1 0c 94 bb b2 20 b1 3d 22 bc de bc 7f a1 8b bd
       -0.0045181294 0.08648814 -0.027189318 -0.06817912
000140 50 97 15 3e 0c 1c b5 bd fb 06 f6 bd 62 f3 7e 3d
       0.14608502 -0.0884324 -0.1201305 0.062243827
000150 f6 0b 2a 3e 30 a8 82 39 38 75 80 3c 9b b8 2c bd
       0.16606125 0.00024920842 0.015680894 -0.04216824
000160 7a 1e 2e be ea 39 87 3c 3c 41 f2 bd 34 ac 2b bd
       -0.17003813 0.016507108 -0.11828849 -0.041912273
000170 06 5f 4a 3b 29 62 9a bc a1 2b dd bd 4d ea bf bc
       0.0030879392 -0.018845635 -0.10799337 -0.023427153
000180 fb c6 ab 3d 02 b0 33 3e a6 7c 04 3e 5c bd c4 3d
       0.08387562 0.1754761 0.12938175 0.0960643
000190 cb 5a a0 bd 63 2c d3 bd b4 d1 5a bd ef e6 58 3d
       -0.078298174 -0.103112005 -0.053422645 0.05295461
0001a0 1f 7b 1b 3d 73 ac b4 3d f9 a4 02 bc 5d 9f 6a 3c
       0.037959214 0.088219546 -0.007973903 0.014320222
0001b0 08 71 2f 3d 8a 80 b9 bd 4a d6 eb 3d 96 60 7f bd
       0.042832404 -0.0905772 0.11515482 -0.06234797
0001c0 60 98 06 3d 17 31 d9 bc cc 49 53 bd c3 24 c4 3d
       0.03286016 -0.026512666 -0.05158405 0.09577324
0001d0 e9 17 f2 3d a5 9f 7b 3d 08 bf 02 be 4b ca 1b 3d
       0.11820967 0.061431546 -0.12768185 0.03803472
0001e0 12 0c 22 3d e4 72 b1 3a 3d ec cc 3c 97 db f0 3c
       0.039562292 0.0013538268 0.025014991 0.029401584
0001f0 9d a6 46 3c 70 b2 8e bd 79 f7 92 3c 84 ab 69 3e
       0.012124685 -0.06967628 0.01794027 0.22819334
000200 92 dd 9e bd 7f a6 dd bc 44 cf 84 bd 40 28 bf bc
       -0.07757105 -0.02705693 -0.06484845 -0.023334622
000210 b2 36 e6 3d d6 b4 81 bd 11 b1 8a 3d 7a 50 82 3d
       0.11240901 -0.0633332 0.06772054 0.06363006
000220 41 83 d5 3d 92 09 51 be 8e fb 03 3d 44 dc 56 3d
       0.10425425 -0.20413807 0.032222323 0.052456155
000230 7a 77 cf bd a8 2f 5b 3e 61 2b 58 be 8a 2b bb 3d
       -0.1013021 0.21404898 -0.21110298 0.09139164
000240 1b 8a 3d be a6 09 2f bd cc ab 19 be 09 bd 8b bd
       -0.18509714 -0.04273381 -0.15006942 -0.06823165
000250 26 b7 0b bd b4 c6 53 bd 7f 6a 4b bd 21 de 0c 3d
       -0.03411021 -0.05170317 -0.04966211 0.034391526
000260 71 e4 f3 bd 96 1f a2 3c fc 74 e1 bd 0e 21 69 3d
       -0.11908806 0.019790452 -0.11008641 0.05691629
000270 4b a1 28 3d f8 e0 d6 3d 4e 9e 44 3c ad 62 8a bd
       0.041169446 0.10492128 0.012000633 -0.06757102
000280 b6 1e ee bd 0b dc 9f 3d 0c 1a ee bb e6 1e 40 be
       -0.116269514 0.07805642 -0.0072662886 -0.18761787
000290 85 23 7e bc e0 f5 ca 3b c8 8d 30 3c 26 33 09 3e
       -0.015511398 0.0061938614 0.010775991 0.13398418
0002a0 e0 86 00 be e8 9e 58 bd 9e e2 aa bd 3c 45 d2 bd
       -0.1255145 -0.05288592 -0.08344005 -0.10267112
0002b0 23 81 92 bd b6 73 78 3c b0 5c bd 3d c9 cb 70 3d
       -0.07153537 0.015164306 0.09246194 0.058788095
0002c0 26 2f 94 3d 6f 04 df bb 16 54 fc bd 63 e9 53 3d
       0.07235555 -0.0068059484 -0.123207256 0.051736247
0002d0 27 5d 04 bd b0 d5 06 3e f5 c5 95 bc 09 dc 00 bc
       -0.0323154 0.13167453 -0.01828287 -0.0078649605
0002e0 b1 88 8e 3d f8 37 f0 ba 15 0a 1e bd f7 f7 04 bd
       0.069596656 -0.0018327227 -0.038583834 -0.03246304
0002f0 d7 6b 0a 3e 26 88 0b bd df 17 54 bb 80 04 91 bd
       0.135177 -0.03406539 -0.003236286 -0.070809364
000300 87 1a 99 3d ba 50 f0 bd 16 ac 8f bd 2e ea 0b bb
       0.07475763 -0.11734147 -0.07015245 -0.0021349299
000310 05 2c 22 3e 83 53 a8 bc 55 14 e0 bc a4 d6 3d 3c
       0.15837105 -0.020547634 -0.027353445 0.011586819
000320 f8 54 8d bd 63 1d 13 be fd de 0d 3e 34 2a 22 bc
       -0.06900972 -0.14366679 0.13854595 -0.009897757
000330 b2 ae ba 3d f8 9c 77 3d 76 9f 62 3d 0d 7d a9 bd
       0.09115352 0.06045243 0.055327855 -0.08275805
000340 a2 0b 80 3d df 66 10 bd 35 c6 2a 3e b1 c2 e2 bc
       0.06252219 -0.035254356 0.16677172 -0.027680727
000350 76 72 94 3d 79 1d a7 bd 7e 56 42 be 24 ee ee 3c
       0.07248394 -0.08159918 -0.18978307 0.029166289
000360 4f 47 40 3e 83 30 6f 3d e7 69 d3 bd 6b df 06 3e
       0.18777202 0.058395874 -0.10322934 0.13171165
000370 94 0e 66 bc d5 49 8a bd c2 89 24 3e d6 4f a1 3d
       -0.014041562 -0.067523636 0.16068175 0.078765556
000380 06 0a ba 3d c2 c8 53 3d 4d ef 40 3c 47 23 40 3e
       0.09083943 0.05170513 0.011775804 0.18763457
000390 ef 34 b6 3c e0 91 c9 3c 93 64 22 bd df 82 46 be
       0.022242038 0.024605691 -0.039646696 -0.19385861
0003a0 e4 40 27 bc 8e 2f 40 bd 65 6a 97 3d 50 8f 32 be
       -0.010208342 -0.04692035 0.0739334 -0.17437482
0003b0 fd 92 d8 bd 19 16 be bd 45 1b 35 be 07 1f e2 bd
       -0.10574911 -0.092815585 -0.17686184 -0.11041074
0003c0 5c 20 b5 3d 32 42 57 3d f9 7d a7 bc 0c 12 69 bd
       0.08844063 0.052553363 -0.02044581 -0.056901976
0003d0 d0 83 44 bd 7e 89 da 3c 9f 36 cd ba 97 82 39 3e
       -0.04797727 0.02667689 -0.0015656537 0.18116222
0003e0 1a c5 21 bd 53 8c 92 bd 8b b8 59 3d 15 7b 41 bd
       -0.03949461 -0.07155671 0.05315451 -0.04723652
0003f0 67 81 ea 3c 5c be ba bc fd 9e b7 3c ba 1f a7 3d
       0.028626157 -0.022795849 0.022414679 0.08160348

rnn.weight_hh_l1 f4 [150, 50]
000000 7b e6 f7 bd f1 62 9c bc d2 f3 56 bd 0a 6c e7 bc
       -0.121045075 -0.019090148 -0.05247862 -0.02824976
000010 75 6f 81 3d 91 4c f0 bd c4 d7 06 bd d2 65 92 bc
       0.06320087 -0.11733354 -0.032920614 -0.017870817
000020 50 f2 1b bd 59 c3 b8 bd 40 a1 bd bd fd 56 0e 3e
       -0.038072884 -0.090216346 -0.092592716 0.13900371
000030 1e 98 e8 3c ef 48 95 3d e9 d6 81 bd 84 8b e5 bd
       0.028392848 0.072893016 -0.06339819 -0.11208251
000040 8c af e7 3c 08 6c ac bd c7 aa d3 3c fa c1 05 bd
       0.02828195 -0.08419043 0.025838269 -0.032655694
000050 ef 94 7c bd 1b 80 0b bd c3 9b eb 3d 27 e9 8a bd
       -0.06166547 -0.034057718 0.115043186 -0.067827515
000060 e1 9b 50 3d e8 84 e3 3d 37 74 ed bd 6c 32 be 3d
       0.050929908 0.11109334 -0.11594432 0.09286961
000070 6a ca 85 3d 07 fd a6 3d b9 dd d2 3d a1 dd 81 3d
       0.06532748 0.0815373 0.102961965 0.063411005
000080 d9 ed 67 bd 72 76 ab 3d 1f ab 25 3c 02 d4 62 3d
       -0.056623314 0.08372201 0.010111599 0.055377968
000090 e8 48 05 bc 90 d2 46 bd 52 7a 2f 3c b0 f7 9a bd
       -0.008135058 -0.04854065 0.010710316 -0.07566774
0000a0 c9 d2 d1 3d 13 21 95 bd d7 d9 0f be b7 3f 5f 3b
       0.10245282 -0.07281699 -0.14047943 0.0034065077
0000b0 46 95 fa 3d 87 e8 59 bd 16 45 1a be b8 c8 65 3d
       0.12235503 -0.05320027 -0.15065417 0.056099623
0000c0 a3 ed c0 bb 9a 56 08 3d cf 89 2f 3d b7 d5 70 bd
       -0.0058877035 0.033285715 0.042856034 -0.058797564
0000d0 5f ad b7 bc 80 cb d4 3c 47 7a 0a bd 4a f6 2f bd
       -0.022421537 0.025975943 -0.03380802 -0.04295949
0000e0 f0 be c4 bc 35 83 cc ba 0a 52 1a be e2 02 2d bd
       -0.024016827 -0.0015603068 -0.15070358 -0.042239077
0000f0 10 3b 0d be 35 08 75 bd 7e 8d eb bd b3 16 93 bd
       -0.13792062 -0.05982228 -0.11501597 -0.07182064
000100 65 de cb 3d a6 88 0b 3e 2f 2d df 3d d0 84 e2 3d
       0.09954528 0.13626346 0.1089729 0.11060488
000110 e1 04 08 3b 26 79 82 3d 75 ae 94 bd 89 85 3a 3d
       0.0020754861 0.063707635 -0.072598375 0.045537505
000120 6a 17 cc 3d 78 a0 65 3d 7f fc 48 bb c5 b3 0a be
       0.099654034 0.056061238 -0.0030668078 -0.13545139
000130 ab f0 d3 3c 2d ca ae 3c 10 80 dd bc a3 62 ac bd
       0.025871595 0.02133664 -0.027038604 -0.08417251
000140 ea 98 d0 3c e6 c7 27 3c a2 1f 2a be 97 1c ba 3c
       0.02546354 0.010240531 -0.1661363 0.02271871
000150 04 ea 37 be 3c dd 74 3d 12 c4 00 bc 68 bf a2 3d
       -0.17960364 0.059781298 -0.007859247 0.07946664
000160 44 7d c5 bd a1 af 2f 3e f5 57 de 3d 87 c2 a1 bd
       -0.09643033 0.17156841 0.1085662 -0.07898431
000170 f0 8e 09 3e 21 25 1e 3a 42 8c 16 bc c9 8e e3 bd
       0.13433433 0.00060327543 -0.0091887135 -0.111112185
000180 35 9b 91 3b 7d c2 bc 3d ca f4 80 bd e1 5d d1 bd
       0.004443551 0.09216783 -0.0629669 -0.10222984
000190 41 8c 56 bd b4 2a 0b 3d 8a 38 da bd 62 1d 13 bc
       -0.05237985 0.03397627 -0.10655315 -0.008979173
0001a0 a8 90 00 3e 43 b9 80 3d a5 ce af bd dc 31 a5 bd
       0.12555182 0.06285336 -0.08584336 -0.080661505
0001b0 5a c4 37 3e b5 86 9e bd 55 87 3f 3c c3 4c 11 be
       0.17945996 -0.07740537 0.0116899805 -0.14189439
0001c0 f1 e8 0d be 39 c4 27 3c 68 9d 19 3c 66 e3 55 bd
       -0.13858391 0.010239654 0.0093759075 -0.052218817
0001d0 52 dc 03 be a2 ee 87 3c 10 7d 4b 3e 92 5f 42 be
       -0.12877014 0.016593281 0.19871926 -0.1898177
0001e0 9a 13 2b 3d db ad 6c be db 91 c9 bd 71 91 6d 3d
       0.04176674 -0.23113196 -0.09842273 0.05800003
0001f0 40 ce 90 ba 41 ea 52 bc 7f 03 ad bd 14 e2 ec 3c
       -0.0011047795 -0.012873233 -0.084479325 0.028916396
000200 59 95 99 3d ee 95 6c bd 2e 12 40 3d 67 ab f5 3d
       0.07499189 -0.05776017 0.046892338 0.11995583
000210 d0 6f e6 3c 7c 6e 5a 3e f7 e6 9f bd fd 1c b2 3d
       0.028129488 0.21331209 -0.07807725 0.08696935
000220 33 b5 da bd 4b 86 d5 bc 78 12 f0 bd b6 7e c2 bd
       -0.10679092 -0.026065012 -0.11722273 -0.094968244
000230 7c b7 83 3c 03 a5 2a 3c 2d 51 a3 3d c3 a6 a6 bd
       0.016078703 0.010415318 0.079744674 -0.08137276
000240 37 cd 85 3d 20 f2 ef bd 08 96 4a bd c8 43 9e bc
       0.06533282 -0.117161036 -0.049459487 -0.01931943
000250 e2 b3 7f 3e 94 5d 02 3e 9f 92 d5 3d 42 a7 57 bd
       0.24970964 0.1273101 0.104283564 -0.052649744
000260 0e f8 cb 3c 0b c6 ab 3c a2 84 c7 3d 48 99 b6 3d
       0.024898555 0.020968458 0.097420946 0.08915955
000270 18 e1 a6 3d 0c ee 60 bd 9e 77 e4 3c 18 c2 ee 3d
       0.08148402 -0.05491452 0.02788907 0.11658114
000280 ed b0 91 bd 47 02 5d bd 9d a5 b6 bb 8e 93 f9 3d
       -0.07113824 -0.05395725 -0.005573942 0.12186347
000290 0a 84 23 be b9 9f 6f 3d 53 a4 0d 3d b4 82 96 bd
       -0.15968338 0.058501933 0.03458054 -0.073491484
0002a0 b0 f3 76 bd 3d 6e 5a 3d 0b 43 fa 3c f3 02 bd bc
       -0.060290992 0.053327788 0.030549547 -0.023072695
0002b0 57 31 de 3d a2 98 6a bb 73 23 92 bd e2 14 4e bc
       0.108492546 -0.0035796543 -0.07135668 -0.012578221
0002c0 51 c4 02 3e 8a ca 02 bd 5f d2 a4 3b 0f 34 0f be
       0.12770201 -0.031931438 0.005029961 -0.13984703
0002d0 3b d9 6f 3d 21 32 b1 bc 57 f4 47 bd d6 9e a4 bd
       0.058556776 -0.021630349 -0.048817005 -0.08038108
0002e0 ff f4 db 3c 45 c1 c8 bd 72 b2 ae bd d2 37 09 be
       0.026850222 -0.09802488 -0.085301295 -0.134002
0002f0 4a aa 3e bd 2a cf 43 bc 69 c6 3f 3e 01 9b bd bd
       -0.04654912 -0.011951247 0.18728031 -0.0925808
000300 c6 47 c0 bd f2 dd 07 3d 38 f5 c4 3d d3 06 38 be
       -0.0938869 0.033170648 0.09617084 -0.17971353
000310 c6 39 d5 39 5b c4 91 3d 7f d9 bb 3b 99 97 19 3e
       0.0004066957 0.0711753 0.0057327147 0.14999236
000320 2a 88 02 be a5 87 6c 3c 88 f2 af 3d 6e f0 24 3e
       -0.12747255 0.014436637 0.08591181 0.16107342
000330 7e 3c 96 bd c6 93 c8 3d a6 1a bc bd 8a d7 bc bd
       -0.07335757 0.097938105 -0.0918477 -0.09220798
000340 50 9a be bd 86 ff 70 3d 16 29 27 bd d7 94 ae 3d
       -0.093067765 0.058837436 -0.040810667 0.08524483
000350 7e 15 0e 3b 2b 9a 23 3e 47 fe eb bd 09 31 90 3d
       0.002168029 0.15976779 -0.11523109 0.07040603
000360 3d 5f 51 3c ec e5 d1 3b 92 75 e4 bd 97 6f a3 bc
       0.012779054 0.0064055827 -0.11155237 -0.019950671
000370 07 dc e3 bd 8f 59 0f be b6 a0 fa bd cb a7 15 be
       -0.11125951 -0.13999008 -0.122376844 -0.14614789
000380 66 68 96 bd a7 b1 83 bd 12 80 8f bc af 8d b9 3d
       -0.07344131 -0.06430369 -0.017517123 0.09060227
000390 88 6b 2c 3d 17 02 36 bd 94 dd 15 3d 50 84 8e 3d
       0.042094737 -0.044435587 0.036588266 0.0695883
0003a0 2d b8 fd bd bd 19 30 bd 73 2a 46 bd cf 1d fa bb
       -0.12388644 -0.042993296 -0.048380326 -0.007632948
0003b0 d4 bf 89 bd b1 da dd 3d b4 80 4e 3c 58 f5 02 3e
       -0.067260414 0.10832728 0.012603927 0.12788904
0003c0 ff d5 03 3e 5e b1 69 3c 03 d2 ee 3d a4 05 e7 bd
       0.12874602 0.014263479 0.1166115 -0.11280373
0003d0 cb 9f 17 3e 67 87 f7 3a 19 6f 16 bd 2e 54 d0 3d
       0.1480705 0.0018884958 -0.036727045 0.10172306
0003e0 12 76 ac bd a3 73 b2 3d 1e bb a6 bd 4f 7a c2 bb
       -0.084209576 0.08713462 -0.081411585 -0.0059349905
0003f0 01 ff 6c bd f9 23 44 be 58 db 81 bd 2c bc 06 be
       -0.05786038 -0.19154347 -0.063406646 -0.1315772
